--------------------------------------------------------------------------------
MLP(
  (model): ModuleList(
    (0): BatchNorm1d(98309, eps=1e-05, momentum=0.1, affine=True, track_running_stats=True)
    (1): Linear(in_features=98309, out_features=32, bias=True)
    (2): Dropout(p=0.4, inplace=False)
    (3): LeakyReLU(negative_slope=0.02, inplace=True)
    (4): BatchNorm1d(32, eps=1e-05, momentum=0.1, affine=True, track_running_stats=True)
    (5): Linear(in_features=32, out_features=512, bias=True)
    (6): Dropout(p=0.1, inplace=False)
    (7): LeakyReLU(negative_slope=0.02, inplace=True)
    (8): BatchNorm1d(512, eps=1e-05, momentum=0.1, affine=True, track_running_stats=True)
    (9): Linear(in_features=512, out_features=1024, bias=True)
    (10): Dropout(p=0.3, inplace=False)
    (11): LeakyReLU(negative_slope=0.02, inplace=True)
    (12): BatchNorm1d(1024, eps=1e-05, momentum=0.1, affine=True, track_running_stats=True)
    (13): Linear(in_features=1024, out_features=128, bias=True)
    (14): Dropout(p=0.3, inplace=False)
    (15): LeakyReLU(negative_slope=0.02, inplace=True)
    (16): BatchNorm1d(128, eps=1e-05, momentum=0.1, affine=True, track_running_stats=True)
    (17): Linear(in_features=128, out_features=1, bias=True)
    (18): Dropout(p=0.1, inplace=False)
    (19): Sigmoid()
  )
)
--------------------------------------------------------------------------------Epoch 1: loss/train (average per element): 0.7135883407876981
--------------------------------------------------------------------------------
Epoch 1
Epoch 1: acc/train: 0.5153965785381026
Epoch 1: precision/train: 0.6105960264900663
…
